models/CIFAR_Net_model.pth (torch, 764565 bytes, 28 tensors)

weight f4 [32, 3, 3, 3]
-0.07232431 -0.033773806 0.122674935 -0.12497055 0.2332985 0.21678647 -0.234441 0.4911307
0.3353045 0.0223714 -0.26403585 0.026930122 -0.19800234 -0.279454 -0.4343206 -0.26263636
-0.015236843 0.029602185 0.07891306 0.26380008 0.06756514 0.055807088 0.10640106 -0.14725456
-0.1522419 0.29280552 -0.12363853 0.13127828 -0.008213302 -0.27972177 0.42603552 0.26865733
-0.23115318 -0.0406803 -0.27342954 0.045083933 0.21532796 -0.11185024 -0.002063692 0.38097772
-0.015370712 -0.12712283 -0.0859962 -0.2607859 -0.04371882 0.20513496 -0.22103618 -0.009604642
0.39236417 0.28729042 0.12670389 -0.38041902 -0.18355198 -0.22834574 -0.25108778 0.2697976
0.2482826 -0.2653785 -0.253659 0.23093316 -0.07197433 -0.23376247 0.22907147 -0.010307878
0.13386433 0.009143899 0.1332439 -0.14175305 -0.046904143 0.110640444 -0.3401546 0.26833013
0.07129243 0.19855611 -0.08018871 0.38056067 -0.2783782 -0.21111186 0.3033197 -0.23895347
-0.25026777 0.1793618 0.48945883 0.10653091 -0.2348432 0.018596115 0.22869392 -0.23370758
-0.32872558 -0.14624426 -0.045647103 0.12555449 -0.21151043 -0.1462035 -0.00025348336 -0.049536474
0.008995445 -0.045255218 0.22854923 -0.04861947 -0.2393146 -0.46516347 0.20529372 0.05060664
-0.010398775 0.41205958 0.23464318 0.007675488 0.14608859 0.3753454 -0.20570008 0.10540998
0.34672204 0.009439479 0.023832751 0.06791419 -0.21982647 -0.25884062 0.26894695 -0.2562017
-0.16867267 -0.14914714 -0.23049623 -0.09882026 -0.30500218 -0.16203985 -0.055710133 0.39512405
0.156525 -0.05069846 0.1428732 0.22438414 -0.08919561 -0.21843013 0.09929188 -0.15886612
-0.15651903 0.074646346 -0.2445295 0.2072047 0.21341933 -0.39194763 0.021117 0.25166962
0.1165996 -0.37858388 0.12198792 0.28858843 0.46038824 -0.19032393 0.21314862 -0.008001831
-0.20710033 0.20234077 -0.1762831 0.13634409 0.20040657 -0.027312402 -0.24950285 0.03100645
-0.13896427 -0.22342758 -0.020749075 0.09073328 -0.118826956 -0.2713613 -0.21738608 -0.384972
0.035790376 -0.35509858 -0.42760646 -0.17879446 0.058165375 0.14891714 -0.2320247 0.18612206
0.23768342 0.0029584593 -0.057191405 0.23916917 -0.16602556 0.046719056 0.14523461 0.06186528
0.30334008 0.15355584 0.21013203 0.3633629 0.22697322 -0.16626936 -0.061599787 -0.3654662
0.1786576 0.06520813 -0.28223458 -0.1508298 0.0899991 0.3184978 -0.107012704 0.16693941
0.07813458 0.080795154 0.1054341 -0.16000617 -0.189232 0.18731904 0.4442118 -0.11383985
0.15592855 0.07197617 -0.11609954 -0.13149801 -0.17323844 -0.31872737 -0.09736295 0.45614102
0.21068975 -0.151699 -0.04867712 0.13299757 -0.21620004 -0.16968432 0.26438797 0.16414161
0.07224907 -0.012259609 -0.20269145 0.038032632 0.16607055 -0.476605 -0.17413831 0.18946894
-0.279897 0.22738554 0.034807306 0.07889325 0.31005684 -0.24167454 -0.32678214 0.17998604
-0.2364818 -0.38856348 0.15254654 -0.045503516 0.039304767 -0.17389093 0.2152641 0.20295063
0.09765249 0.14467189 -0.37413374 0.049522117 -0.33364764 0.07732939 -0.041896593 0.06388012
00000000: c51e 94bd 6756 0abd ff3c fb3d 8ff0 ffbd
00000010: cde5 6e3e 46fd 5d3e 4d11 70be 7c75 fb3e
00000020: 08ad ab3e 3a44 b73c b52f 87be 8f9c dc3c
00000030: 20c1 4abe 9814 8fbe 455f debe 4678 86be
00000040: f4a3 79bc 4880 f23c 2c9d a13d ce10 873e
00000050: 985f 8a3d f995 643d cde8 d93d e6c9 16be
00000060: 4de5 1bbe 9bea 953e 3336 fdbd d06d 063e
00000070: 1691 06bc b137 8fbe 5421 da3e 748d 893e
00000080: 6bb3 6cbe 63a0 26bd f5fe 8bbe eea9 383d
00000090: ef7e 5c3e bd11 e5bd 023f 07bb 830f c33e
000000a0: 70d5 7bbc 7d2c 02be c71e b0bd bb85 85be
000000b0: 8112 33bd e60e 523e 4f57 62be ca5c 1dbc
000000c0: f5e3 c83e bb17 933e aabe 013e 48c6 c2be
000000d0: 0df5 3bbe 77d3 69be 948e 80be e922 8a3e
000000e0: cb3d 7e3e b1df 87be 98df 81be be79 6c3e
000000f0: 4767 93bd 6e5f 6fbe b691 6a3e 60e2 28bc
00000100: bb13 093e 4bd0 153c 1771 083e b627 11be
00000110: 8f1e 40bd 7597 e23d be28 aebe 9162 893e
00000120: c401 923d 4b52 4b3e fa39 a4bd d9d8 c23e
00000130: 9687 8ebe b52d 58be b84c 9b3e 38b0 74be
00000140: 1923 80be 9faa 373e 599a fa3e e12c da3d
00000150: bc7a 70be e156 983c bd2e 6a3e 0a51 6fbe
00000160: b84e a8be 0ec1 15be 75f8 3abd 5b91 003e
00000170: 3196 58be 5fb6 15be f6e5 84b9 c2e6 4abd
00000180: a261 133c 895d 39bd cf08 6a3e 3625 47bd
00000190: e30e 75be e829 eebe 8438 523e e848 4f3d
000001a0: a05f 2abc 79f9 d23e 4d46 703e a982 fb3b
000001b0: 3f98 153e 462d c03e 0ba3 52be 30e1 d73d
000001c0: 8d85 b13e 0ba8 1a3c e73c c33c 9816 8b3d
000001d0: 311a 61be c286 84be 6ab3 893e df2c 83be
000001e0: 87b8 2cbe 07ba 18be 3407 6cbe 4762 cabd
000001f0: 3f29 9cbe c6ed 25be 4f30 64bd b34d ca3e
00000200: 1748 203e 30a9 4fbd 5a4d 123e f5c4 653e
00000210: 30ac b6bd 26ac 5fbe 8b59 cb3d cdad 22be
00000220: 8646 20be 2fe0 983d f165 7abe 782d 543e
00000230: 998a 5a3e 5cad c8be 8ffd ac3c d7da 803e
00000240: c5cb ee3d bfd5 c1be cdd4 f93d ddc1 933e
00000250: 02b8 eb3e 47e4 42be a243 5a3e 1d1a 03bc
00000260: 1c12 54be 6b32 4f3e 8f83 34be c99d 0b3e
00000270: 6137 4d3e 42be dfbc ad7d 7fbe 3d01 fe3c
00000280: a64c 0ebe 33ca 64be f7f9 a9bc 5fd2 b93d
00000290: 8c5b f3bd deef 8abe 759a 5ebe 0d1b c5be
000002a0: ee98 123d 7bcf b5be 3cef dabe e515 37be
000002b0: d13e 6e3d bc7d 183e e297 6dbe c896 3e3e
000002c0: 4863 733e b6e2 413b 8941 6abd c3e8 743e
000002d0: 9b02 2abe 7b5c 3f3d 62b8 143e 7366 7d3d
000002e0: 644f 9b3e be3d 1d3e da2c 573e b40a ba3e
000002f0: ab6b 683e 8442 2abe 0f50 7cbd 631e bbbe
00000300: 05f2 363e d78b 853d 0d81 90be 2173 1abe
00000310: 7351 b83d 2512 a33e 7a29 dbbd 2af2 2a3e
00000320: 0605 a03d ee77 a53d d5ed d73d a8d8 23be
00000330: 09c6 41be 90d0 3f3e bb6f e33e de24 e9bd
00000340: bcab 1f3e 3e68 933d 98c5 edbd 6aa7 06be
00000350: 6b65 31be 3c30 a3be 3a66 c7bd 518b e93e
00000360: 0ebf 573e fc56 1bbe a961 47bd 8430 083e
00000370: 8b63 5dbe bac1 2dbe dc5d 873e bd14 283e
00000380: 52f7 933d 87dc 48bc 598e 4fbe 1bc8 1b3d
00000390: 660e 2a3e 9205 f4be 5051 32be 2504 423e
000003a0: a94e 8fbe c1d7 683e 1b92 0e3d c992 a13d
000003b0: c5bf 9e3e 8879 77be fd4f a7be 434e 383e
000003c0: 4928 72be cbf1 c6be 2935 1c3e e561 3abd
000003d0: 09fe 203d 7710 32be 316e 5c3e 4ad2 4f3e
000003e0: 07fe c73d de24 143e 758e bfbe b4d7 4a3d
000003f0: ddd3 aabe df5e 9e3d c39b 2bbd 95d3 823d

bias f4 [32]
0.12579936 0.27248463 0.3763945 0.36730537 0.12317147 0.30895382 -0.06944658 0.393413
-0.4228964 -0.65286726 0.22734077 0.25623345 0.41728505 0.18038693 0.44517002 0.23676537
0.30607963 -0.2532481 -0.5660621 0.5147749 -0.009658181 0.46000478 0.31824565 -0.09776293
0.41628346 0.20103699 -0.37428048 0.45831868 0.3176954 -0.45571312 0.35983264 0.14038454
00000000: 8cd1 003e 1b83 8b3e c8b6 c03e 730f bc3e
00000010: 5341 fc3d 322f 9e3e 023a 8ebd 6e6d c93e
00000020: e085 d8be 4f22 27bf 05cc 683e 0831 833e
00000030: 63a6 d53e 5ab7 383e 53ed e33e 9f72 723e
00000040: 78b6 9c3e bca9 81be 72e9 10bf 4ac8 033f
00000050: 593d 1ebc bf85 eb3e 18f1 a23e ee37 c8bd
00000060: 1b23 d53e a4dc 4d3e b1a1 bfbe bfa8 ea3e
00000070: f9a8 a23e 3b53 e9be fc3b b83e f7c0 0f3e

weight f4 [32]
0.74070245 0.9792021 1.1699545 0.96678597 0.789599 1.137295 0.5526069 0.95603305
0.8236226 0.45392552 0.9318523 1.1537172 1.325915 0.70178103 0.76031154 1.1276941
1.1764684 0.5969338 0.69318736 0.9443008 0.6923601 1.042878 1.2755117 0.66873974
0.978707 1.0088364 0.7547753 0.8052866 1.2273093 0.51179564 1.2341157 0.8333806
00000000: ad9e 3d3f fdac 7a3f 12c1 953f 497f 773f
00000010: 2923 4a3f e292 913f a577 0d3f 95be 743f
00000020: eed8 523f ed68 e83e df8d 6e3f 01ad 933f
00000030: 95b7 a93f eca7 333f c7a3 423f 4858 903f
00000040: 8496 963f a7d0 183f ba74 313f b2bd 713f
00000050: 833e 313f 077d 853f f843 a33f 8732 2b3f
00000060: 8b8c 7a3f 8d21 813f f438 413f 4327 4e3f
00000070: 7918 9d3f 0a05 033f 81f7 9d3f 6e58 553f

bias f4 [32]
0.14008327 0.28744617 0.19929028 0.032993715 0.07382694 0.19126804 0.19971207 0.31171167
-0.041032854 0.07634727 0.21137507 0.123378195 0.43673688 0.2088382 0.15213081 0.22555064
0.43327758 0.2069186 -0.017473992 0.073155396 0.19826329 0.3007857 0.1596666 0.17758815
0.25185713 0.22885722 0.0013734894 0.1598166 0.12117835 0.056652866 0.41648608 0.3020608
00000000: fd71 0f3e 252c 933e c012 4c3e 6b24 073d
00000010: 9432 973d c5db 433e 5281 4c3e ac98 9f3e
00000020: 1112 28bd f55b 9c3d b572 583e b5ad fc3d
00000030: fa9b df3e aed9 553e 2ec8 1b3e bff6 663e
00000040: 8fd6 dd3e 78e2 533e 9e25 8fbc 7fd2 953d
00000050: 8805 4b3e 9500 9a3e a47f 233e abd9 353e
00000060: 6bf3 803e 8c59 6a3e a806 b43a f6a6 233e
00000070: 5b2c f83d d60c 683d aa3d d53e b7a7 9a3e

running_mean f4 [32]
0.25994182 0.49183702 0.4574536 0.40812838 0.32431418 0.3521952 0.49238044 0.5142011
0.2121974 0.2818757 0.27646688 0.30295816 0.52874434 0.42939538 0.5246204 0.3789442
0.40510145 0.31719637 0.20360741 0.59885556 0.30115283 0.5245754 0.36746228 0.37466112
0.6028654 0.2703021 0.18055707 0.5790646 0.36236227 0.40513763 0.46930566 0.5009587
00000000: 1817 853e 10d2 fb3e 5c37 ea3e 34f6 d03e
00000010: 820c a63e ee52 b43e 4a19 fc3e afa2 033f
00000020: 464a 593e 0352 903e 118d 8d3e 551d 9b3e
00000030: ca5b 073f b6d9 db3e 864d 063f f904 c23e
00000040: 7569 cf3e 9067 a23e 767e 503e 994e 193f
00000050: b430 9a3e 934a 063f 0424 bc3e 95d3 bf3e
00000060: 6355 1a3f 0965 8a3e f4e3 383e 943d 143f
00000070: 8c87 b93e 336e cf3e d548 f03e d43e 003f

running_var f4 [32]
0.17352386 0.4763232 0.2042136 0.106880896 0.23342027 0.09536451 0.51346296 0.28415832
0.20601754 0.30232722 0.098014176 0.07331349 0.2774591 0.44779947 0.3657635 0.29996285
0.1862349 0.30238292 0.20364434 0.31780216 0.17676783 0.18991978 0.13060722 0.34298104
0.45391378 0.12280006 0.16948836 0.38698217 0.10861343 0.58386636 0.24407792 0.6875877
00000000: 3db0 313e a2e0 f33e 5f1d 513e 5fe4 da3d
00000010: b905 6f3e 784e c33d 4f72 033f 337d 913e
00000020: 43f6 523e a2ca 9a3e a8bb c83d 6225 963d
00000030: 1f0f 8e3e f945 e53e 5a45 bb3e bb94 993e
00000040: 5db4 3e3e efd1 9a3e 2488 503e f7b6 a23e
00000050: a002 353e 557a 423e e6bd 053e 369b af3e
00000060: 6367 e83e 997e fb3d 5b8e 2d3e 8722 c63e
00000070: b870 de3d 4478 153f 90ef 793e bf05 303f

weight f4 [64, 32, 3, 3]
-0.03960289 -0.16524172 0.27822244 0.06431236 0.03620071 -0.15985952 -0.086723186 0.09103417
-0.108630955 0.062388502 0.12296443 -0.1273225 0.16703981 -0.16379255 -0.5205784 -0.024703145
0.10548674 -0.38573503 -0.1371051 0.15625398 -0.2729809 0.1436356 0.074058436 0.40793538
0.0148992855 -0.45781612 0.20607452 -0.24701634 0.27079377 -0.026059518 -0.076130904 -0.069363594
0.38492146 0.31107268 -0.37685204 -0.10818538 0.045294534 0.0868622 -0.20423362 0.0116660055
-0.2001713 0.039952733 0.23959677 -0.2696996 -0.2697939 -0.0037064906 -0.020456782 0.273497
0.114104375 -0.23215853 0.17912808 -0.32447472 0.25246808 -0.21504264 -0.12489344 -0.06101443
-0.11623614 -0.117957674 -0.008798077 0.091918 -0.021264374 0.13215943 0.14690313 0.038105123
0.15318106 0.22680342 0.13699517 -0.17238556 -0.16876888 -0.12052761 -0.1460698 0.10300669
-0.020275518 -0.23680155 -0.1652006 0.12763138 0.21178286 -0.15682268 -0.073237896 0.13744134
-0.060136177 -0.12447761 0.18866476 0.1431743 -0.090069465 -0.033198547 0.06654581 -0.048917964
-0.039537285 0.1017372 0.1655351 -0.42498547 -0.17315122 0.17957257 0.054461196 -0.10785633
-0.16059747 0.43542904 0.0052687065 0.39928794 -0.10858368 -0.03362646 -0.22383642 0.5043066
-0.08371577 0.22061 -0.13749853 0.014507955 -0.063046396 0.073340945 -0.035441313 0.01945543
0.015157581 0.106126115 0.27974862 -0.34900177 0.032670423 -0.06552832 0.16470185 0.13880649
-0.0029799356 -0.20632628 0.30404404 -0.15756643 -0.075109445 -0.32858607 -0.010524241 0.17095333
0.012838643 0.009530071 -0.14609377 0.13606028 -0.015188669 -0.41620183 -0.15814011 0.19351359
0.003780024 0.20994706 0.1156648 0.3868847 -0.46831986 -0.12178203 0.09091241 0.03187268
0.32810578 0.23230664 -0.23110136 0.046485458 -0.14780854 0.27884775 0.095363006 0.07899042
-0.0491981 0.09834247 -0.050103262 0.16673635 -0.05165675 -0.16083734 -0.08638166 0.120446235
0.14350672 -0.12020121 0.0591542 0.012307502 -0.0853643 0.07216124 0.22796065 -0.039088883
-0.18533748 -0.024027245 0.13905151 -0.099548906 -0.0075610704 0.22637779 -0.0036074752 -0.19122134
0.0057472093 0.15707308 0.10089373 -0.18970507 -0.17244956 0.084678814 0.018317437 -0.02553429
-0.11277712 -0.2637033 0.21071708 -0.108525135 0.0007577976 -0.06336619 -0.030152898 0.14352714
0.16414472 -0.2583753 -0.07377419 -0.39475682 0.16592214 -0.10526715 -0.19351403 -0.039252527
0.08072025 0.26982504 -0.16735323 0.015163048 -0.31530848 0.24875973 -0.14463814 0.21891387
0.046627283 -0.7056786 0.17720199 0.11545252 -0.20579025 0.025463138 -0.16636904 -0.06361958
-0.19665441 -0.033968292 0.040707722 0.0376159 -0.13986106 -0.19290428 0.1488845 -0.10940269
-0.06358805 -0.13854812 -0.18346041 -0.117312305 0.27092102 -0.21938094 -0.19977924 0.13677657
0.27048016 0.032209303 0.043146584 -0.07095816 -0.07622473 0.2261535 -0.26314938 -0.20533448
0.25103214 -0.18962674 -0.26000643 -0.012603181 -0.056354243 0.28874186 -0.09594401 0.13486573
0.12108596 0.28079784 0.063057154 -0.13895893 0.08354192 -0.022986697 -0.16367213 0.321942
00000000: a436 22bd 2035 29be 2c73 8e3e 33b6 833d
00000010: 3247 143d 37b2 23be ed9b b1bd 1f70 ba3d
00000020: e879 debd 168b 7f3d c6d4 fb3d d460 02be
00000030: 7c0c 2b3e 3cb9 27be a044 05bf 405e cabc
00000040: 6f09 d83d 107f c5be 4865 0cbe 0b01 203e
00000050: 27c4 8bbe 3615 133e f3ab 973d e8dc d03e
00000060: 221c 743c e066 eabe 3305 533e daf1 7cbe
00000070: 7ba5 8a3e c57a d5bc 85ea 9bbd 800e 8ebd
00000080: 6d14 c53e eb44 9f3e c0f2 c0be 4c90 ddbd
00000090: c386 393d cfe4 b13d 9e22 51be c622 3f3c
000000a0: b5f9 4cbe 7aa5 233d db58 753e 1116 8abe
000000b0: 6d22 8abe 98e8 72bb fb94 a7bc cc07 8c3e
000000c0: 8eaf e93d f7ba 6dbe 5a6d 373e 8d21 a6be
000000d0: 7f43 813e 2334 5cbe 22c8 ffbd 44ea 79bd
000000e0: 370d eebd cb93 f1bd cf25 10bc 813f bc3d
000000f0: a032 aebc cd54 073e c66d 163e 1e14 1c3d
00000100: 7fdb 1c3e 283f 683e 7648 0c3e d785 30be
00000110: c0d1 2cbe 2ed7 f6bd 5293 15be 2cf5 d23d
00000120: d818 a6bc 1b7c 72be 592a 29be cdb1 023e
00000130: 9bdd 583e 2096 20be c0fd 95bd 6cbd 0c3e
00000140: 5a51 76bd 1eee febd 5631 413e 499c 123e
00000150: 5776 b8bd 33fb 07bd 2b49 883d 345e 48bd
00000160: d9f1 21bd 985b d03d 0982 293e b297 d9be
00000170: 8e4e 31be dfe1 373e b412 5f3d c8e3 dcbd
00000180: aa73 24be 8ef0 de3e 1da5 ac3b 786f cc3e
00000190: 1f61 debd e6bb 09bd 6035 65be 3d1a 013f
000001a0: 2c73 abbd 96e7 613e 6acc 0cbe c6b2 6d3c
000001b0: 781e 81bd c733 963d e92a 11bd fe60 9f3c
000001c0: 8157 783c a658 d93d 363b 8f3e 5cb0 b2be
000001d0: 6cd1 053d b633 86bd 9aa7 283e 4a23 0e3e
000001e0: 064b 43bb 3247 53be a9ab 9b3e 1859 21be
000001f0: fbd2 99bd 6f3c a8be de6d 2cbc 640e 2f3e
00000200: 2c59 523c 0424 1c3c 9b99 15be 6353 0b3e
00000210: e5d9 78bc 6818 d5be 7bef 21be 6d28 463e
00000220: 47ba 773b 5dfc 563e abe1 ec3d c015 c63e
00000230: 9fc7 efbe db68 f9bd 4930 ba3d ed8c 023d
00000240: 7bfd a73e cbe1 6d3e d6a5 6cbe 8967 3e3d
00000250: 1f5b 17be 22c5 8e3e ae4d c33d bbc5 a13d
00000260: f283 49bd c767 c93d 1439 4dbd efbc 2a3e
00000270: 0796 53bd 8bb2 24be dee8 b0bd 84ac f63d
00000280: 6df3 123e 0d2c f6bd ad4b 723d 68a5 493c
00000290: 7ad3 aebd 46c9 933d 846e 693e aa1b 20bd
000002a0: 1cc9 3dbe c9d4 c4bc 8563 0e3e 4ce0 cbbd
000002b0: dbc2 f7bb 94cf 673e 646b 6cbb 87cf 43be
000002c0: 1653 bc3b c4d7 203e 5fa1 ce3d 0c42 42be
000002d0: 9e96 30be 166c ad3d 730e 963c 4a2d d1bc
000002e0: b1f7 e6bd 1e04 87be 38c6 573e 6d42 debd
000002f0: f0a6 463a 22c6 81bd 3603 f7bc c7f8 123e
00000300: 8e15 283e c449 84be ec16 97bd 911d cabe
00000310: 7ee7 293e 4e96 d7bd 8b28 46be 42c7 20bd
00000320: a950 a53d 8226 8a3e a55e 2bbe 6f6e 783c
00000330: 1d70 a1be dfba 7e3e 051c 14be f52a 603e
00000340: 40fc 3e3d 5aa7 34bf 7074 353e 5f72 ec3d
00000350: aeba 52be 1298 d03c a55c 2abe fb4a 82bd
00000360: c65f 49be 5622 0bbd 24bd 263d 2113 1a3d
00000370: bd37 0fbe b388 45be 2e75 183e 840e e0bd
00000380: 743a 82bd 8fdf 0dbe 0cdd 3bbe 6f41 f0bd
00000390: 29b6 8a3e 66a5 60be ee92 4cbe 280f 0c3e
000003a0: 607c 8a3e e7ed 033d 79ba 303d 8352 91bd
000003b0: b61b 9cbd c894 673e 84bb 86be 3443 52be
000003c0: 4987 803e 832d 42be 901f 85be 937d 4ebc
000003d0: b5d3 66bd f9d5 933e 4b7e c4bd 3e1a 0a3e
000003e0: eafb f73d bcc4 8f3e 1c24 813d 404b 0ebe
000003f0: 0718 ab3d 994e bcbc ab99 27be 95d5 a43e

bias f4 [64]
-0.20125481 -0.7838128 -0.7863215 -0.60815316 -0.16504301 -0.11131843 -0.8026777 -0.17635791
-0.73346865 -1.8698094 -0.8436175 -0.8885441 -0.19814752 -1.0708454 -0.43926647 -1.790211
-0.9606072 -0.5192565 -0.9704117 -0.6006734 -0.20666003 -0.8030113 -0.33924055 -0.02770121
-0.40796956 -0.41965348 -0.44883826 0.0056852456 -0.3315217 0.024115663 -1.0041405 -1.1541013
-1.1084338 -1.3097192 -0.5670109 -1.1843985 -0.208898 -0.47961506 -0.7227194 -1.2330868
-0.46207112 -1.2694491 -0.21195997 -0.2855206 -1.0660846 -0.6550985 0.24848479 -0.5963819
-0.8219557 -2.639755 -0.30422777 -0.9068438 -0.33908698 -0.58403426 -0.36449566 -1.3464125
-0.5807244 0.20721045 -0.90678185 -0.6615616 -0.22712004 -0.53655314 -0.9738062 -1.50419
00000000: be15 4ebe f5a7 48bf 5e4c 49bf edaf 1bbf
00000010: 0901 29be ebfa e3bd 497c 4dbf 2b97 34be
00000020: 9ac4 3bbf ea55 efbf 51f7 57bf a077 63bf
00000030: 2fe7 4abe 7611 89bf 89e7 e0be a225 e5bf
00000040: 5aea 75bf feed 04bf e76c 78bf bbc5 19bf
00000050: b09e 53be 2692 4dbf f0b0 adbe a6ed e2bc
00000060: 63e1 d0be d2dc d6be 21ce e5be 4c4b ba3b
00000070: 36bd a9be 368e c53c ad87 80bf 97b9 93bf
00000080: 29e1 8dbf e1a4 a7bf a027 11bf 5f9a 97bf
00000090: 5be9 55be 1b90 f5be 2304 39bf cad5 9dbf
000000a0: 9694 ecbe 4f7d a2bf 090c 59be c22f 92be
000000b0: 7675 88bf 89b4 27bf cc72 7e3e 7cac 18bf
000000c0: b06b 52bf bff1 28c0 bec3 9bbe ea26 68bf
000000d0: cf9c adbe 4583 15bf 2d9f babe 3f57 acbf
000000e0: 5baa 14bf fa2e 543e db22 68bf 1a5c 29bf
000000f0: 2892 68be 8c5b 09bf 5d4b 79bf 4c89 c0bf

weight f4 [64]
0.9207679 0.7237317 1.0405266 0.82548594 0.66739345 0.829878 1.2333789 0.83355623
0.9721804 0.9841436 1.1136681 1.2056453 0.6361124 0.9129787 1.3367811 0.78848654
1.0043039 1.0007674 0.99211127 0.9138266 0.7790916 1.227029 1.5310339 1.3132039
0.8021623 0.9157641 0.7936302 1.1339468 1.1130166 1.0884115 1.0515401 0.89408904
0.9071534 0.82036906 1.2124945 0.91288394 0.78058904 0.77577007 0.69300866 1.1123118
0.8229842 1.0174854 1.05928 1.3637624 0.9835785 1.154665 0.76048 1.3743925
1.2600445 1.1170934 0.8815116 0.88403004 1.1360143 1.083656 0.6904209 0.6492752
0.9323104 0.84459925 0.8318022 1.001322 0.7969429 0.95865947 1.0714184 0.97380304
00000000: 72b7 6b3f 7b46 393f fa2f 853f 0c53 533f
00000010: 4cda 2a3f e272 543f 5cdf 9d3f f163 553f
00000020: d1e0 783f d6f0 7b3f ad8c 8e3f 9652 9a3f
00000030: 43d8 223f f9b8 693f a51b ab3f 41da 493f
00000040: 088d 803f 2519 803f 01fb 7d3f 8af0 693f
00000050: 8c72 473f 490f 9d3f ebf8 c33f 1117 a83f
00000060: 825a 4d3f 846f 6a3f 592b 4b3f 2b25 913f
00000070: 5477 8e3f 1151 8b3f de98 863f 05e3 643f
00000080: 353b 683f b503 523f 0533 9b3f c3b2 693f
00000090: afd4 473f de98 463f 0469 313f 3c60 8e3f
000000a0: 18af 523f f63c 823f 7d96 873f c48f ae3f
000000b0: cdcb 7b3f 10cc 933f d1ae 423f 18ec af3f
000000c0: 2349 a13f ebfc 8e3f bfaa 613f cb4f 623f
000000d0: eb68 913f 3db5 8a3f 6dbf 303f e636 263f
000000e0: e5ab 6e3f a837 583f fdf0 543f 522b 803f
000000f0: 7304 4c3f b56a 753f 3d24 893f 284b 793f

bias f4 [64]
-0.15546548 0.46529123 -0.033240303 0.57544094 0.34247687 0.11945605 0.25536954 0.3695223
0.3105377 0.46831107 0.17922525 0.10279373 0.3386327 0.11217795 0.19131263 0.3901425
-0.09910779 0.106343135 0.005156306 0.28784478 0.27599168 0.1007256 0.27102238 -0.03537481
0.3292814 0.1775173 0.54525656 0.008735088 0.09931935 0.1735909 0.19583341 0.22527614
0.23990674 0.49833065 0.50948006 0.50632024 0.031526234 0.24104775 0.005502641 0.33930537
-0.20484394 -0.06196074 0.27918148 0.21834177 0.061400894 0.12835689 0.17893243 0.39254284
-0.25304136 0.49399146 0.07162663 0.25037816 0.08121697 -0.22763379 0.23128682 0.7726943
0.60574156 -0.074600324 -0.26442993 0.17625919 0.38017812 0.3727503 0.25827494 0.3444983
00000000: 5832 1fbe a73a ee3e fc26 08bd 1950 133f
00000010: 2159 af3e 60a5 f43d ccbf 823e 0732 bd3e
00000020: ccfe 9e3e 78c6 ef3e d386 373e 8585 d23d
00000030: 4461 ad3e 8ebd e53d 75e7 433e c2c0 c73e
00000040: 06f9 cabd 6eca d93d 3bf6 a83b 6460 933e
00000050: c84e 8d3e 3949 ce3d 72c3 8a3e 2de5 10bd
00000060: 9297 a83e 18c7 353e ef95 0b3f 9d1d 0f3c
00000070: f267 cb3d d0c1 313e 8e88 483e caae 663e
00000080: 1daa 753e 3225 ff3e 496d 023f 349e 013f
00000090: a721 013d 39d5 763e 804f b43b 6fb9 ad3e
000000a0: 9cc2 51be 8bca 7dbd e0f0 8e3e fc94 5f3e
000000b0: 817f 7b3d fd6f 033e 103a 373e 60fb c83e
000000c0: a38e 81be 73ec fc3e fcb0 923d 9131 803e
000000d0: 1555 a63d d518 69be 74d6 6c3e 4bcf 453f
000000e0: e111 1b3f 0ec8 98bd 5c63 87be 4a7d 343e
000000f0: b5a6 c23e 21d9 be3e 9d3c 843e 1562 b03e

running_mean f4 [64]
1.5296824 1.9316038 2.37561 1.3616138 2.289884 2.0036447 2.1221473 2.0966716
1.3862727 3.1340954 1.3246298 1.2478926 0.77854437 0.61498594 1.3334132 2.1467645
0.8007764 1.1823205 0.9124275 1.3624892 1.1319705 1.269726 1.9948988 1.3701586
1.3732488 0.89987195 1.9947747 1.5008646 1.374146 1.3531734 1.0716934 4.116372
0.8728218 1.8774694 1.4652747 0.8448291 1.5091916 1.3493006 0.7274533 1.666659
1.1348864 1.1429683 1.4238222 2.0700765 1.2589324 1.736127 2.2343328 2.3099835
0.9609292 2.1641443 1.0423752 1.5237821 0.98826754 1.3300217 1.5309515 3.9715173
1.0398666 1.2917154 0.9621504 1.6080266 1.3751022 1.5450876 2.2693849 1.2842792
00000000: a2cc c33f cb3e f73f ff09 1840 5c49 ae3f
00000010: 768d 1240 b73b 0040 43d1 0740 de2f 0640
00000020: 6271 b13f 0595 4840 788d a93f f2ba 9f3f
00000030: af4e 473f b86f 1d3f 49ad aa3f 9764 0940
00000040: afff 4c3f 4756 973f d994 693f 0c66 ae3f
00000050: 69e4 903f 6286 a23f d858 ff3f 5b61 af3f
00000060: 9ec6 af3f 025e 663f c754 ff3f 551c c03f
00000070: 04e4 af3f c934 ad3f 402d 893f 52b9 8340
00000080: 4071 5f3f eb50 f03f 1f8e bb3f b846 583f
00000090: 312d c13f e2b5 ac3f 613a 3a3f 1555 d53f
000000a0: f543 913f c94c 923f ce3f b63f 227c 0440
000000b0: b224 a13f 6939 de3f 4fff 0e40 c5d6 1340
000000c0: 75ff 753f 5781 0a40 8d6c 853f 4b0b c33f
000000d0: 1aff 7c3f 273e aa3f 38f6 c33f 572d 7e40
000000e0: 591a 853f ee56 a53f 7d4f 763f d1d3 cd3f
000000f0: 5903 b03f 6ec5 c53f 9a3d 1140 4363 a43f

running_var f4 [64]
9.308919 11.318395 17.99758 8.056858 20.887339 18.783138 20.771805 11.496979
9.311638 25.53823 10.199329 8.76935 3.3512237 3.0833366 10.38437 15.862528
5.433619 5.2549725 4.74761 10.664473 5.6654935 9.709761 21.477325 8.3671255
9.4240265 4.758515 14.511959 9.720394 11.62997 8.384418 7.0833697 30.40391
6.1846437 10.955931 15.68595 4.674578 8.080442 5.8076124 3.0386646 14.215358
5.941854 8.371547 12.143847 22.528845 10.908398 15.191555 13.3858595 25.61306
6.201394 17.575392 7.194739 11.182559 6.36393 10.458293 8.957187 32.39729
7.209123 5.392547 6.8893204 12.3608465 8.695842 6.412346 20.817333 11.095907
00000000: 55f1 1441 2518 3541 0bfb 8f41 e4e8 0041
00000010: 4519 a741 de43 9641 a82c a641 a0f3 3741
00000020: 78fc 1441 4c4e cc41 7430 2341 424f 0c41
00000030: 737a 5640 6355 4540 6126 2641 eacc 7d41
00000040: 35e0 ad40 bc28 a840 6cec 9740 aea1 2a41
00000050: b94b b540 2e5b 1b41 90d1 ab41 bfdf 0541
00000060: d0c8 1641 c145 9840 fc30 6841 bc86 1b41
00000070: 5b14 3a41 9326 0641 f7aa e240 353b f341
00000080: 9ae8 c540 7e4b 2f41 a7f9 7a41 2596 9540
00000090: 7e49 0141 f6d7 b940 7b79 4240 1b72 6341
000000a0: ab23 be40 dbf1 0541 334d 4241 133b b441
000000b0: cc88 2e41 9c10 7341 7b2c 5641 8ce7 cc41
000000c0: d271 c640 679a 8c41 4d3b e640 c3eb 3241
000000d0: 51a5 cb40 2b55 2741 a350 0f41 d396 0142
000000e0: 23b1 e640 bf8f ac40 5075 dc40 07c6 4541
000000f0: 2b22 0b41 f031 cd40 e689 a641 d688 3141

weight f4 [128, 64, 3, 3]
0.0060273376 0.25386098 -0.021816421 0.17719077 -0.038523704 0.082145005 0.02324151 0.028069632
0.13007107 0.033153113 0.2140357 0.06322439 0.15221952 0.10574965 0.14183752 -0.015958423
-0.28125337 -0.0019833099 -0.056676015 -0.06888006 -0.28854826 0.14970802 0.16648649 -0.10135812
0.14504018 0.2082745 -0.13193358 0.06448726 -0.074028015 -0.10748397 -0.06767566 -0.26480874
-0.22674067 -0.066906184 -0.46314615 -0.6260154 -0.027116027 0.23296762 0.3143909 0.07124603
0.20851217 0.25839406 -0.23421545 -0.22908156 -0.30513546 0.14395174 0.23726812 0.25190485
0.30411613 0.3364606 0.1826533 -0.08818939 0.019105038 -0.25558776 0.27546826 0.06914034
0.13456987 0.17638087 0.31339312 0.26286843 0.014352783 0.1567992 0.072666824 -0.16758935
-0.25388646 0.0009910043 -0.0011916299 0.027749648 0.30228543 -0.22766958 -0.040941108 0.14470512
-0.18163022 0.14447734 -0.090905026 0.017303295 0.061708685 -0.1442146 -0.0986948 -0.2883575
-0.43488872 -0.061225887 -0.045023743 -0.19889718 -0.08797587 -0.049278516 -0.11434973 -0.22924447
-0.22719368 -0.17081209 -0.34797964 -0.089850746 -0.025682617 -0.10970485 -0.046296503 0.2109912
0.05920078 0.15456235 -0.012446419 -0.20903422 -0.19588734 0.06804714 -0.24891192 -0.31301236
0.015803635 -0.032493737 -0.07517833 0.19136004 -0.27128026 -0.3365757 -0.17823161 -0.44230187
-0.08003336 -0.00087859493 -0.12275402 0.03989709 -0.013242203 -0.23870182 -0.21296243 0.061648473
-0.04776208 0.015566344 0.036699023 -0.0651433 -0.009486038 -0.20510113 0.25352854 0.12009146
-0.13312112 0.1818459 0.20293345 -0.040676013 0.18290894 0.1539896 -0.00061800575 -0.18850061
-0.19562194 -0.120041534 -0.26164982 -0.06863629 -0.15467033 0.054411903 -0.053392828 0.15577893
0.014669146 0.094243415 0.184154 -0.04385048 -0.19974425 0.21183223 0.1706598 0.072521396
0.09256849 0.28323764 0.39536187 0.25565115 0.06966743 -0.018722963 -0.16542028 -0.10502158
-0.3662602 -0.15599972 -0.007404395 -0.26141834 -0.21145491 -0.08686509 -0.16681671 0.10051404
0.07374194 0.23594591 -0.005224358 0.06451035 0.020314276 0.17158288 -0.13861799 -0.10238351
-0.14116167 0.12304394 0.26914376 0.11281477 0.0026199708 -0.06300654 -0.017982883 0.024367519
-0.2545319 -0.27129406 0.2379878 -0.09990211 -0.11825102 0.009594222 -0.17161484 0.17475754
-0.076316416 -0.06229581 0.20755284 -0.11307973 0.1284794 0.3814476 -0.17192371 -0.16182984
-0.10552816 0.0154482005 -0.16634908 -0.14170125 0.029321399 0.12534723 0.16202275 -0.22542155
0.073837794 0.32029596 -0.14710791 -0.094939664 0.48697597 -0.1185894 0.106371254 0.14862916
0.14853095 -0.10299294 -0.12283353 0.041257128 0.042245645 -0.12274659 0.33546278 0.2900631
0.103032775 -0.29810956 -0.2793876 -0.027491413 -0.13114677 0.028953701 0.087295905 0.17326811
0.25439927 0.15258859 -0.060279332 0.11267581 -0.09332447 0.0074776337 0.012470018 -0.053399272
-0.0030041211 -0.005104714 -0.038641013 -0.14711738 -0.11893895 -0.05711492 0.015854467 -0.015619682
0.22875896 -0.13722776 0.11000504 0.2728793 -0.109647185 0.12845115 0.23674951 -0.010550555
00000000: f980 c53b 11fa 813e 5ab8 b2bc 7f71 353e
00000010: 08cb 1dbd a43b a83d fb64 be3c 49f2 e53c
00000020: 5a31 053e 8fcb 073d 2d2c 5b3e ca7b 813d
00000030: 6fdf 1b3e 4693 d83d db3d 113e 3dbb 82bc
00000040: 7100 90be 6bfa 01bb 1c25 68bd fd10 8dbd
00000050: 99bc 93be 0f4d 193e 6f7b 2a3e d994 cfbd
00000060: 6a85 143e e945 553e 9919 07be e611 843d
00000070: 009c 97bd 8e20 dcbd 8999 8abd 0395 87be
00000080: b52e 68be 1c06 89bd 7e21 edbe 8c42 20bf
00000090: 6e22 debc 108f 6e3e d8f7 a03e 70e9 913d
000000a0: 3784 553e 3a4c 843e 2dd6 6fbe 5b94 6abe
000000b0: b73a 9cbe 1668 133e 6af6 723e acf9 803e
000000c0: 1cb5 9b3e 9044 ac3e 7709 3b3e a49c b4bd
000000d0: 2b82 9c3c 66dc 82be 2d0a 8d3e 7399 8d3d
000000e0: afcc 093e 309d 343e 1075 a03e b196 863e
000000f0: ef27 6b3c f88f 203e 58d2 943d 8b9c 2bbe
00000100: 68fd 81be 96e4 813a 7730 9cba 3b53 e33c
00000110: 28c5 9a3e 3722 69be ddb1 27bd 942d 143e
00000120: 46fd 39be def1 133e 6a2c babd a4bf 8d3c
00000130: 3fc2 7c3d feac 13be 8020 cabd 98a3 93be
00000140: bca9 debe ffc7 7abd d16a 38bd b4ab 4bbe
00000150: b12c b4bd 45d8 49bd 3130 eabd 10bf 6abe
00000160: 76a5 68be 5de9 2ebe 632a b2be ab03 b8bd
00000170: 5a64 d2bc f0ac e0bd 67a1 3dbd 140e 583e
00000180: 847c 723d 9845 1e3e 11ec 4bbc 110d 56be
00000190: b196 48be 4d5c 8b3d c4e2 7ebe 2843 a0be
000001a0: a076 813c 2718 05bd 19f7 99bd e3f3 433e
000001b0: 3fe5 8abe a653 acbe 5982 36be 6475 e2be
000001c0: 88e8 a3bd 8251 66ba 7666 fbbd 226b 233d
000001d0: d3f5 58bc 406e 74be d312 5abe 1c83 7c3d
000001e0: 2ca2 43bd fb09 7f3c b751 163d da69 85bd
000001f0: 546b 1bbc 0806 52be 7ece 813e 83f2 f53d
00000200: e750 08be d035 3a3e c9cd 4f3e e49b 26bd
00000210: 7b4c 3b3e 73af 1d3e aa01 22ba 4e06 41be
00000220: 1e51 48be 56d8 f5bd f7f6 85be 2f91 8cbd
00000230: e661 1ebe 04df 5e3d 70b2 5abd 8384 1f3e
00000240: dc56 703c b102 c13d de92 3c3e 909c 33bd
00000250: c289 4cbe 8cea 583e 71c1 2e3e 1986 943d
00000260: 8c94 bd3d 8604 913e df6c ca3e b5e4 823e
00000270: ccad 8e3d e660 99bc ef63 29be 8e15 d7bd
00000280: 7586 bbbe 64be 1fbe 91a0 f2bb a0d8 85be
00000290: a387 58be 53e6 b1bd 00d2 2abe 4eda cd3d
000002a0: 0406 973d ce9b 713e 1731 abbb 011e 843d
000002b0: 206a a63c 6cb3 2f3e e0f1 0dbe 72ae d1bd
000002c0: af8c 10be 76fe fb3d 36cd 893e 6e0b e73d
000002d0: d1b3 2b3b 9309 81bd d750 93bc 649e c73c
000002e0: 0152 82be 0ee7 8abe 13b3 733e 7a99 ccbd
000002f0: 972d f2bd 1531 1d3c cdbb 2fbe a4f3 323e
00000300: c84b 9cbd e429 7fbd bb88 543e 5896 e7bd
00000310: 1b90 033e 1a4d c33e c50c 30be b9b6 25be
00000320: 261f d8bd 731a 7d3c 6a57 2abe 221a 11be
00000330: 6e33 f03c 065b 003e 4be9 253e e8d4 66be
00000340: 4538 973d d5fd a33e 75a3 16be ba6f c2bd
00000350: ea54 f93e 00df f2bd 2cd9 d93d 3e32 183e
00000360: 7f18 183e f6ed d2bd 2590 fbbd 3cfd 283d
00000370: c509 2d3d 9062 fbbd c7c1 ab3e 2783 943e
00000380: d902 d33d d1a1 98be e40b 8fbe ac35 e1bc
00000390: 574b 06be 5030 ed3c 32c8 b23d 326d 313e
000003a0: 9f40 823e 2f40 1c3e 76e7 76bd 93c2 e63d
000003b0: e620 bfbd f006 f53b 0c4f 4c3c 32b9 5abd
000003c0: cae0 44bb 7245 a7bb 0a46 1ebd f0a5 16be
000003d0: 4496 f3bd 56f1 69bd 3ae1 813c b2e9 7fbc
000003e0: ca3f 6a3e 6f85 0cbe 534a e13d d6b6 8b3e
000003f0: b48e e0bd b388 033e 776e 723e 3cdc 2cbc

bias f4 [128]
-0.30927706 -0.059561748 -0.2158111 -0.19906077 0.020404274 -0.123508975 -0.30217972 -0.022531787
0.0427985 0.19390304 -0.122427255 -0.20573187 0.004694855 -0.2802604 -0.17938584 -0.24426949
-0.12661922 -0.36194432 -0.027582869 0.11232916 -0.10732346 0.23979169 0.056836657 0.12068533
-0.042091962 -0.069294065 -0.30273318 -0.5158102 -0.13646635 -0.13451403 -0.09233595 -0.010024589
-0.16077441 -0.067821324 0.23205788 -0.20426282 -0.22148557 -0.32520053 0.103905775 -0.2935162
-0.4643441 -0.18811052 0.00527904 -0.26108265 -0.22149982 -0.09861147 -0.093646586 0.29764995
-0.3219028 -0.19748762 0.099289544 -0.17979322 -0.053181868 -0.03521392 -0.02744066 -0.16971359
-0.2087135 -0.22930741 -0.033352025 0.08765603 -0.19713041 -0.2964395 -0.30731675 0.019945756
-0.20039062 -0.28113097 -0.31498122 -0.20351945 -0.16421029 -0.28344396 -0.110434435 0.0022089723
-0.13607581 -0.085865036 -0.07567122 0.23119047 -0.36656192 -0.07436626 0.14020362 0.0888053
-0.60290235 -0.187954 -0.1795028 -0.004669038 -0.04722104 -0.110799424 -0.17953625 -0.3112407
-0.1402233 0.0044057867 -0.24938136 -0.02370861 0.079860285 0.02853695 -0.098539054 0.055590276
0.19080259 0.06243427 0.021163726 -0.27576697 -0.2273015 -0.12727197 -0.057732955 -0.18827853
-0.11404355 -0.010508599 0.012027298 -0.29557496 -0.1476409 -0.12630697 0.14726189 -0.14243802
-0.24379005 0.08668479 -0.41214642 0.17250504 -0.3424805 -0.056335043 0.121656306 0.05133043
-0.20837756 0.0057193344 0.30858135 -0.3450366 -0.0025568109 -0.08116904 -0.038987402 -0.07318171
00000000: 9059 9ebe 05f7 73bd 96fd 5cbe 96d6 4bbe
00000010: dd26 a73c 46f2 fcbd 4db7 9abe 9594 b8bc
00000020: 7b4d 2f3d 858e 463e 24bb fabd 60ab 52be
00000030: 4cd7 993b 4b7e 8fbe ecb0 37be c821 7abe
00000040: 78a8 01be c450 b9be 78f5 e1bc d50c e63d
00000050: 67cc dbbd f48b 753e 8ecd 683d df29 f73d
00000060: 9f68 2cbd 0cea 8dbd d8ff 9abe 230c 04bf
00000070: d6bd 0bbe 0cbe 09be a11a bdbd 2c3e 24bc
00000080: 0ca2 24be e8e5 8abd 95a0 6d3e 462a 51be
00000090: 1dcd 62be af80 a6be 8dcc d43d c147 96be
000000a0: 83be edbe 0ba0 40be ccfb ac3b a0ac 85be
000000b0: d9d0 62be cff4 c9bd c8c9 bfbd 9365 983e
000000c0: 72d0 a4be 323a 4abe 5158 cb3d b71b 38be
000000d0: 3bd5 59bd 793c 10bd 3ccb e0bc 66c9 2dbe
000000e0: feb8 55be 90cf 6abe 229c 08bd 0185 b33d
000000f0: 8edc 49be ebc6 97be 9f58 9dbe 4865 a33c
00000100: 3333 4dbe 66f0 8fbe 3845 a1be 6767 50be
00000110: be26 28be 911f 91be 732b e2bd 68c4 103b
00000120: 7557 0bbe 02da afbd 83f9 9abd 32bd 6c3e
00000130: 01ae bbbe 564d 98bd 8a91 0f3e 8edf b53d
00000140: cf57 1abf 0377 40be 95cf 37be bbfe 98bb
00000150: d96a 41bd cfea e2bd 5ad8 37be f15a 9fbe
00000160: b296 0fbe 6b5e 903b d45d 7fbe 8f38 c2bc
00000170: ca8d a33d 52c6 e93c d8ce c9bd a1b2 633d
00000180: c161 433e 14bb 7f3d 8d5f ad3c 5431 8dbe
00000190: b9c1 68be 9553 02be 6479 6cbd 16cc 40be
000001a0: aa8f e9bd 422c 2cbc 250e 453c 9a55 97be
000001b0: 2d2f 17be 9d56 01be d2cb 163e 46db 11be
000001c0: 19a4 79be cc87 b13d db04 d3be 29a5 303e
000001d0: 9b59 afbe 93bf 66bd f126 f93d db3f 523d
000001e0: ed60 55be 4169 bb3b 60fe 9d3e a3a8 b0be
000001f0: 2b90 27bb f43b a6bd 41b1 1fbd 4be0 95bd

weight f4 [128]
0.9204961 0.8558116 1.0245914 0.9080068 1.8725625 0.76722276 0.7383993 0.8374923
0.83414316 1.1017599 1.1270897 1.1429816 0.71654785 1.2017528 0.8545869 1.1305397
0.82689637 1.0143908 0.80260605 0.85535586 0.95683277 0.69997555 0.8194843 1.2814529
0.8406446 1.0571924 1.2378265 0.833602 0.908382 0.7829475 0.9003877 0.83332074
1.0558516 1.0419799 1.8815169 1.0982724 0.7495498 0.73365664 0.821418 1.0029854
0.7924313 0.84861404 1.0150825 0.9201854 1.0135036 1.0173054 1.195436 0.9797
1.55103 1.3475437 0.8819687 1.9467508 1.4286122 0.87033147 0.6306616 0.9474527
0.9516218 1.39859 0.79797167 0.762576 0.990011 0.8877326 0.76796705 1.0431794
0.90727335 0.9498437 0.9315583 1.2516167 0.8952384 1.1500945 0.7790469 0.8295942
0.79309493 1.7271605 0.7971904 1.2650448 0.8114859 0.8799236 0.93487996 0.8506406
0.88655156 1.0031953 1.4126122 1.0346886 1.0554006 0.93287605 0.7906899 0.6634772
0.8047327 0.7837897 1.056506 1.2419753 0.78574425 0.7591031 0.7850282 0.7816051
0.73230594 0.82742417 0.7129798 0.78644836 1.1762264 1.1264423 0.87392443 0.7835338
2.206356 1.0098282 1.1318945 0.86351657 0.8520024 0.9557318 1.1828785 0.65380037
0.8337774 1.2678019 0.8914256 0.91673756 0.93743616 0.77401865 0.8823494 1.191227
0.9541263 0.94292176 1.1707027 1.0815997 0.93570954 0.8983983 0.6312792 1.1387438
00000000: a2a5 6b3f 7816 5b3f d025 833f 2273 683f
00000010: 21b0 ef3f b668 443f bd07 3d3f e565 563f
00000020: 688a 553f 7806 8d3f 7a44 903f 394d 923f
00000030: ae6f 373f 09d3 993f 35c6 5a3f 86b5 903f
00000040: 7baf 533f 8fd7 813f 9777 4d3f 9af8 5a3f
00000050: fef2 743f 9931 333f b9c9 513f a606 a43f
00000060: 7c34 573f 1552 873f 1971 9e3f f166 553f
00000070: b98b 683f 3f6f 483f cf7f 663f 8254 553f
00000080: 2526 873f 995f 853f 8cd5 f03f 3194 8c3f
00000090: 7fe2 3f3f ecd0 3b3f 7348 523f d361 803f
000000a0: c7dc 4a3f c53e 593f 39ee 813f 4591 6b3f
000000b0: 7cba 813f 1037 823f 0c04 993f 9fcd 7a3f
000000c0: 2788 c63f 507c ac3f b3c8 613f 212f f93f
000000d0: c4dc b63f 0bce 5e3f 0a73 213f 438c 723f
000000e0: 7c9d 733f ff04 b33f df47 4c3f 2e38 433f
000000f0: 5c71 7d3f 7242 633f 7d99 443f e786 853f
00000100: 1143 683f f528 733f 9b7a 6e3f fa34 a03f
00000110: 582e 653f 4c36 933f 9e6f 473f 4960 543f
00000120: 4508 4b3f 9813 dd3f ac14 4c3f fdec a13f
00000130: 8abd 4f3f ac42 613f 4b54 6f3f 95c3 593f
00000140: 0bf5 623f b468 803f 7ad0 b43f ad70 843f
00000150: 5e17 873f f7d0 6e3f a76a 4a3f a4d9 293f
00000160: f602 4e3f 71a6 483f 973b 873f 0cf9 9e3f
00000170: 8926 493f 9554 423f 9cf7 483f 4617 483f
00000180: 6778 3b3f 12d2 533f d885 363f ae54 493f
00000190: 968e 963f 432f 903f 83b9 5f3f ac95 483f
000001a0: f034 0d40 0d42 813f ebe1 903f 6c0f 5d3f
000001b0: d41c 5a3f d7aa 743f 9068 973f 765f 273f
000001c0: 7072 553f 5547 a23f 7834 643f 50af 6a3f
000001d0: d1fb 6f3f 1626 463f a6e1 613f 207a 983f
000001e0: 9f41 743f 5263 713f 96d9 953f dc71 8a3f
000001f0: a98a 6f3f 6efd 653f 839b 213f 5bc2 913f

bias f4 [128]
-0.28344327 -0.0932881 -0.043921653 -0.048719108 0.19268236 -0.09443096 0.0029936784 -0.03488673
0.07137714 0.09890526 0.26975 -0.014487381 -0.08192204 -0.09847175 -0.2034829 -0.11423466
-0.15155777 0.1614591 -0.19961832 -0.10108582 -0.016369978 -0.09870297 0.008924937 0.15304857
-0.061200153 -0.0803569 0.12373288 -0.20543674 -0.16250905 -0.1471586 -0.19041231 -0.25451937
-0.20655939 -0.026129227 0.047466874 0.020927021 -0.45642364 -0.26409933 0.03078909 -0.20279694
-0.2907076 -0.3111549 -0.021968082 0.0116401175 -0.087872826 0.1278325 -0.028646342 -0.18767181
0.20548972 0.02260593 -0.21265174 0.18450718 0.21010605 -0.010236666 -0.2644273 -0.038821254
-0.03734832 0.0041072587 0.03633836 -0.24986075 -0.14811899 -0.16565928 -0.050637953 0.02539785
-0.24141826 -0.023623386 -0.13482276 -0.04801154 -0.24913667 -0.030756522 -0.25198305 -0.18323486
-0.33066276 0.19385971 -0.056935463 0.033144027 -0.31756458 -0.17921051 0.0076306723 -0.056889683
-0.030267904 -0.39930516 0.19477852 -0.113508634 0.044481624 -0.11790724 -0.11894263 0.04837013
-0.21879667 -0.14069256 -0.24694528 -0.018253163 0.08143617 -0.10695851 -0.21887289 -0.28907973
-0.25977483 0.07113885 -0.30422 -0.0857055 -0.014491415 0.06253969 -0.10056215 -0.06859093
0.17312427 0.104176775 0.16494922 -0.20356694 -0.14860842 -0.20378181 0.1356362 -0.10650573
-0.32216752 -0.10334702 -0.11339113 0.038836643 -0.050599284 -0.003277685 -0.17857145 0.009762717
-0.03189764 0.05033998 0.02689334 0.10431194 -0.1320755 0.03963103 -0.28572184 0.35176438
00000000: 7a1f 91be d50d bfbd 31e7 33bd b08d 47bd
00000010: 864e 453e 0565 c1bd 9731 443b 63e5 0ebd
00000020: 2e2e 923d d78e ca3d ac1c 8a3e 7b5c 6dbc
00000030: bec6 a7bd 8fab c9bd d25d 50be ddf3 e9bd
00000040: f631 1bbe 8955 253e bf68 4cbe 1506 cfbd
00000050: 551a 86bc c824 cabd e639 123c c4b8 1c3e
00000060: 03ad 7abd 2992 a4bd aa67 fd3d 025e 52be
00000070: c668 26be beb0 16be 72fb 42be 5d50 82be
00000080: 4e84 53be f60c d6bc a06c 423d 256f ab3c
00000090: 5cb0 e9be 0738 87be 6739 fc3c 00aa 4fbe
000000a0: a0d7 94be b24f 9fbe 68f6 b3bc 31b6 3e3c
000000b0: abf6 b3bd 86e6 023e bcab eabc 0a2d 40be
000000c0: e66b 523e 1230 b93c 61c1 59be 73ef 3c3e
000000d0: 0a26 573e b0b7 27bc 0463 87be 0903 1fbd
000000e0: 8dfa 18bd 2f96 863b 88d7 143d 7fdb 7fbe
000000f0: 81ac 17be 96a2 29be be69 4fbd 270f d03c
00000100: 5936 77be d585 c1bc fa0e 0abe c0a7 44bd
00000110: af1d 7fbe 1af5 fbbc ec03 81be eba1 3bbe
00000120: a14c a9be 2983 463e 2935 69bd 08c2 073d
00000130: d397 a2be f682 37be b80a fa3b 2805 69bd
00000140: 65f4 f7bc ba71 ccbe 0574 473e 3777 e8bd
00000150: 5d32 363d 5a79 f1bd 3298 f3bd c21f 463d
00000160: 3c0c 60be b611 10be 39df 7cbe a887 95bc
00000170: 02c8 a63d 100d dbbd 3720 60be 4202 94be
00000180: 3501 85be 3fb1 913d b9c2 9bbe 5d86 afbd
00000190: 666d 6dbc cf14 803d 87f3 cdbd 6779 8cbd
000001a0: 7d47 313e a25a d53d 73e8 283e da73 50be
000001b0: ce2c 18be 2eac 50be 37e4 0a3e ad1f dabd
000001c0: 24f3 a4be 9aa7 d3bd 9c39 e8bd 2c13 1f3d
000001d0: 3241 4fbd 6ece 56bb 6fdb 36be cef3 1f3c
000001e0: 1aa7 02bd 4b31 4e3d 6c4f dc3c 80a1 d53d
000001f0: cd3e 07be 2654 223d 224a 92be 761a b43e

running_mean f4 [128]
0.74512583 0.8290025 0.4319979 0.48970655 1.1335373 1.2507037 1.0863645 0.5711702
0.6318853 1.4019469 0.8162275 0.38970038 0.8233453 0.9371181 0.61902 0.9752894
0.9943257 1.1820182 1.0316964 0.58481944 0.53142554 1.1618924 0.85167783 0.89866865
1.335048 1.3542131 0.66451627 1.3458424 1.6528271 1.811915 1.4796017 4.92237
0.8257564 0.48732895 0.7275126 1.2405055 10.148595 1.0248791 1.2868937 0.7536227
1.2678357 2.26939 1.0162479 1.4348356 1.2266775 0.8814809 1.1289401 1.1915226
0.16921002 1.2483774 2.0322716 0.70668584 1.0996934 0.6125496 0.76274514 0.2726922
0.6127778 0.9981547 0.6289147 1.9059107 1.4197739 1.1749309 5.4999547 0.71655595
1.3658457 0.3332059 1.2940094 0.74104303 0.88003385 1.5310075 0.5051385 0.40334928
1.1050572 1.4278446 2.2917686 0.47630498 2.8998165 1.8651925 0.59264207 1.1549621
0.7547744 0.2192761 1.4972974 1.5953907 2.0842054 2.3354993 1.3421932 0.61524916
1.6715869 0.52849156 1.5509673 0.65986013 1.0596199 0.8880841 1.5254557 0.43677157
1.7717637 0.5038147 1.8414931 1.1412593 0.95153505 1.162174 0.90425956 1.0249683
0.50082505 1.1395613 1.0334525 0.9466443 0.3652266 1.1491604 0.35956192 0.35171616
0.68690187 1.6722782 1.2670217 0.72196907 0.96286666 0.68768525 0.5071587 0.5550485
1.1960745 0.798089 1.5467918 1.111108 1.6251386 1.4571903 1.2173464 0.80761606
00000000: 91c0 3e3f 8239 543f d42e dd3e d1ba fa3e
00000010: c017 913f 0f17 a03f fe0d 8b3f 3638 123f
00000020: 3cc3 213f ff72 b33f 49f4 503f cf86 c73e
00000030: c2c6 523f f9e6 6f3f 1878 1e3f 91ac 793f
00000040: 218c 7e3f 5f4c 973f a10e 843f bab6 153f
00000050: 810b 083f e4b8 943f 8f07 5a3f 260f 663f
00000060: dae2 aa3f db56 ad3f bd1d 2a3f 9044 ac3f
00000070: d78f d33f d5ec e73f 9763 bd3f 0e84 9d40
00000080: c564 533f 2e83 f93e 443e 3a3f e2c8 9e3f
00000090: a560 2241 3d2f 833f efb8 a43f 6bed 403f
000000a0: 7148 a23f b03d 1140 6914 823f b1a8 b73f
000000b0: c503 9d3f bba8 613f 1c81 903f d083 983f
000000c0: 6445 2d3e d5ca 9f3f bd10 0240 5de9 343f
000000d0: c1c2 8c3f 0dd0 1c3f 4443 433f 509e 8b3e
000000e0: 02df 1c3f 1187 7f3f 8e00 213f e2f4 f33f
000000f0: 27bb b53f 2364 963f a1ff af40 3670 373f
00000100: 08d4 ae3f f799 aa3e 1aa2 a53f ffb4 3d3f
00000110: e649 613f 0ef8 c33f c250 013f cc83 ce3e
00000120: 8472 8d3f 9dc3 b63f 56ac 1240 3fde f33e
00000130: 9896 3940 a1be ee3f 64b7 173f ccd5 933f
00000140: e538 413f ea89 603e 71a7 bf3f c335 cc3f
00000150: 9f63 0540 d278 1540 fdcc ab3f f880 1d3f
00000160: 8ff6 d53f 394b 073f 1986 c63f 98ec 283f
00000170: a0a1 873f 7b59 633f 2242 c33f 86a0 df3e
00000180: 27c9 e23f 00fa 003f 0cb6 eb3f c914 923f
00000190: cd97 733f 1ec2 943f 8e7d 673f 2932 833f
000001a0: 1236 003f 25dd 913f 2c48 843f 4857 723f
000001b0: fbfe ba3e b017 933f 8018 b83e 2414 b43e
000001c0: cdd8 2f3f 360d d63f c42d a23f f7d2 383f
000001d0: 6e7e 763f 240c 303f 27d5 013f a917 0e3f
000001e0: f818 993f 904f 4c3f 46fd c53f c938 8e3f
000001f0: 8b04 d03f 3685 ba3f 02d2 9b3f edbf 4e3f

running_var f4 [128]
5.61533 6.4654007 4.341055 3.1120806 21.479248 9.549691 11.846097 4.224496
5.9249625 9.926802 5.1840367 3.3843918 5.4835324 7.6441865 4.3443747 9.479405
9.007148 14.597855 8.359118 4.8778205 3.5765364 9.596268 7.3172565 9.488301
9.699787 12.194565 5.26722 11.219174 15.04703 12.512401 10.37727 52.054424
9.808599 5.8792396 8.82159 11.888461 98.33284 11.539508 12.688327 5.512925
12.392287 24.088757 16.3506 13.209699 9.627676 10.47043 10.435578 8.025027
0.9953675 12.563802 16.099016 9.356069 17.690096 4.9232836 7.280027 2.5656826
4.1549416 14.680282 4.5462184 14.401674 10.338817 10.3618 61.392628 7.788821
15.8595295 2.9281442 15.110375 6.1641874 7.7885914 15.356205 3.718733 3.4345832
10.112781 21.3805 22.2143 3.643467 30.939552 15.376286 5.3064733 9.152001
7.184016 1.3589739 20.343233 12.794173 18.628819 17.373243 12.035055 5.4391403
15.081893 3.8729165 14.766312 8.062656 8.04675 7.469815 17.380024 3.002155
18.371641 3.3871047 20.643646 10.340136 8.320733 11.634032 8.794218 8.686225
6.8648047 10.83217 9.969259 9.095963 2.606239 17.2648 2.7887764 2.868792
5.2532897 12.332669 11.704818 5.234178 8.911369 5.7836604 3.743752 4.665472
12.048396 8.219262 21.737747 9.520237 17.573542 10.527282 10.036572 6.468318
00000000: c9b0 b340 90e4 ce40 ece9 8a40 542c 4740
00000010: 80d5 ab41 89cb 1841 9d89 3d41 122f 8740
00000020: 4b99 bd40 2ed4 1e41 a1e3 a540 e099 5840
00000030: 1979 af40 2d9d f440 1e05 8b40 a5ab 1741
00000040: 471d 1041 d090 6941 f3be 0541 1b17 9c40
00000050: f9e5 6440 508a 1941 f726 ea40 15d0 1741
00000060: 5432 1b41 f01c 4341 118d a840 bd81 3341
00000070: a3c0 7041 cb32 4841 4c09 2641 bb37 5042
00000080: 06f0 1c41 bb22 bc40 3c25 0d41 2337 3e41
00000090: 6aaa c442 d3a1 3841 6303 4b41 e269 b040
000000a0: cf46 4641 c6b5 c041 07ce 8241 ed5a 5341
000000b0: f60a 1a41 e286 2741 21f8 2641 8366 0041
000000c0: 68d0 7e3f 5505 4941 c9ca 8041 75b2 1541
000000d0: 5185 8d41 8a8b 9d40 fbf5 e840 2534 2440
000000e0: 48f5 8440 6fe2 6a41 9f7a 9140 426d 6641
000000f0: cb6b 2541 efc9 2541 0d92 7542 063e f940
00000100: a2c0 7d41 b766 3b40 19c4 7141 0641 c540
00000110: 243c f940 04b3 7541 b9ff 6d40 36d0 5b40
00000120: f3cd 2141 440b ab41 e3b6 b141 902e 6940
00000130: 3484 f741 4405 7641 a1ce a940 996e 1241
00000140: 76e3 e540 dbf2 ad3f f1be a241 efb4 4c41
00000150: d207 9541 67fc 8a41 968f 4041 700d ae40
00000160: 6f4f 7141 dddd 7740 d042 6c41 a400 0141
00000170: 7dbf 0041 b908 ef40 4a0a 8b41 4f23 4040
00000180: 1ff9 9241 53c6 5840 3026 a541 3271 2541
00000190: b921 0541 ff24 3a41 1eb5 0c41 c7fa 0a41
000001a0: 7bac db40 9150 2d41 1682 1f41 1089 1141
000001b0: 9fcc 2640 4f1e 8a41 507b 3240 4a9a 3740
000001c0: f31a a840 9d52 4541 ef46 3b41 637e a740
000001d0: f894 0e41 bf13 b940 a299 6f40 8c4b 9540
000001e0: 3bc6 4041 1982 0341 e8e6 ad41 e452 1841
000001f0: 9d96 8c41 bf6f 2841 cd95 2041 76fc ce40
